…
I0417 00:26:33.904762 2048377600 net.cpp:257] The NetState phase (0) differed from the phase (1) specified by a rule in layer data
I0417 00:26:33.904794 2048377600 net.cpp:257] The NetState phase (0) differed from the phase (1) specified by a rule in layer accuracy
I0417 00:26:33.904808 2048377600 net.cpp:42] Initializing net from parameters: 
name: "LeNet"
state {
  phase: TRAIN
}
layer {
  name: "data"
  type: "HDF5Data"
  top: "data"
  top: "label"
  include {
    phase: TRAIN
  }
  hdf5_data_param {
    source: "data/train.txt"
    batch_size: 150
  }
}
layer {
  name: "conv1"
  type: "Convolution"
  bottom: "data"
  top: "conv1"
  param {
    lr_mult: 1
  }
  param {
    lr_mult: 2
  }
  convolution_param {
    num_output: 20
    kernel_size: 5
    stride: 1
    weight_filler {
      type: "xavier"
    }
    bias_filler {
      type: "constant"
    }
  }
}
layer {
  name: "pool1"
  type: "Pooling"
  bottom: "conv1"
  top: "pool1"
  pooling_param {
    pool: MAX
    kernel_size: 2
    stride: 2
  }
}
layer {
  name: "conv2"
  type: "Convolution"
  bottom: "pool1"
  top: "conv2"
  param {
    lr_mult: 1
  }
  param {
    lr_mult: 2
  }
  convolution_param {
    num_output: 50
    kernel_size: 5
    stride: 1
    weight_filler {
      type: "xavier"
    }
    bias_filler {
      type: "constant"
    }
  }
}
layer {
  name: "pool2"
  type: "Pooling"
  bottom: "conv2"
  top: "pool2"
  pooling_param {
    pool: MAX
    kernel_size: 2
    stride: 2
  }
}
layer {
  name: "conv3"
  type: "Convolution"
  bottom: "pool2"
  top: "conv3"
  param {
    lr_mult: 1
  }
  param {
    lr_mult: 2
  }
  convolution_param {
    num_output: 50
    kernel_size: 5
    stride: 1
    weight_filler {
      type: "xavier"
    }
    bias_filler {
      type: "constant"
    }
  }
}
layer {
  name: "pool3"
  type: "Pooling"
  bottom: "conv3"
  top: "pool3"
  pooling_param {
    pool: MAX
    kernel_size: 2
    stride: 2
  }
}
layer {
  name: "ip1"
  type: "InnerProduct"
  bottom: "pool3"
  top: "ip1"
  param {
    lr_mult: 1
  }
  param {
    lr_mult: 2
  }
  inner_product_param {
    num_output: 1000
    weight_filler {
      type: "xavier"
    }
    bias_filler {
      type: "constant"
    }
  }
}
layer {
  name: "relu1"
  type: "ReLU"
  bottom: "ip1"
  top: "ip1"
}
layer {
  name: "drop1"
  type: "Dropout"
  bottom: "ip1"
  top: "ip1"
  dropout_param {
    dropout_ratio: 0.5
  }
}
layer {
  name: "ip2"
  type: "InnerProduct"
  bottom: "ip1"
  top: "ip2"
  param {
    lr_mult: 1
  }
  param {
    lr_mult: 2
  }
  inner_product_param {
    num_output: 1000
    weight_filler {
      type: "xavier"
    }
    bias_filler {
      type: "constant"
    }
  }
}
layer {
  name: "relu2"
  type: "ReLU"
  bottom: "ip2"
  top: "ip2"
}
layer {
  name: "drop2"
  type: "Dropout"
  bottom: "ip2"
  top: "ip2"
  dropout_param {
    dropout_ratio: 0.5
  }
}
layer {
  name: "ip3"
  type: "InnerProduct"
  bottom: "ip2"
  top: "ip3"
  param {
    lr_mult: 1
  }
  param {
    lr_mult: 2
  }
  inner_product_param {
    num_output: 2000
    weight_filler {
      type: "xavier"
    }
    bias_filler {
      type: "constant"
    }
  }
}
layer {
  name: "loss"
  type: "SoftmaxWithLoss"
  bottom: "ip3"
  bottom: "label"
  top: "loss"
}
I0417 00:26:33.905001 2048377600 layer_factory.hpp:74] Creating layer data
I0417 00:26:33.905025 2048377600 net.cpp:84] Creating Layer data
I0417 00:26:33.905037 2048377600 net.cpp:338] data -> data
I0417 00:26:33.905060 2048377600 net.cpp:338] data -> label
I0417 00:26:33.905092 2048377600 net.cpp:113] Setting up data
I0417 00:26:33.905117 2048377600 hdf5_data_layer.cpp:80] Loading list of HDF5 filenames from: data/train.txt
I0417 00:26:33.905419 2048377600 hdf5_data_layer.cpp:94] Number of HDF5 files: 1
I0417 00:26:42.795660 2048377600 net.cpp:120] Top shape: 150 1 50 50 (375000)
I0417 00:26:42.795722 2048377600 net.cpp:120] Top shape: 150 (150)
I0417 00:26:42.795737 2048377600 layer_factory.hpp:74] Creating layer conv1
I0417 00:26:42.795758 2048377600 net.cpp:84] Creating Layer conv1
I0417 00:26:42.795768 2048377600 net.cpp:380] conv1 <- data
I0417 00:26:42.795789 2048377600 net.cpp:338] conv1 -> conv1
I0417 00:26:42.795802 2048377600 net.cpp:113] Setting up conv1
I0417 00:26:42.800730 2048377600 net.cpp:120] Top shape: 150 20 46 46 (6348000)
I0417 00:26:42.800758 2048377600 layer_factory.hpp:74] Creating layer pool1
I0417 00:26:42.800772 2048377600 net.cpp:84] Creating Layer pool1
I0417 00:26:42.800781 2048377600 net.cpp:380] pool1 <- conv1
I0417 00:26:42.800791 2048377600 net.cpp:338] pool1 -> pool1
I0417 00:26:42.800814 2048377600 net.cpp:113] Setting up pool1
I0417 00:26:42.800835 2048377600 net.cpp:120] Top shape: 150 20 23 23 (1587000)
I0417 00:26:42.800847 2048377600 layer_factory.hpp:74] Creating layer conv2
I0417 00:26:42.800858 2048377600 net.cpp:84] Creating Layer conv2
I0417 00:26:42.800866 2048377600 net.cpp:380] conv2 <- pool1
I0417 00:26:42.800879 2048377600 net.cpp:338] conv2 -> conv2
I0417 00:26:42.800892 2048377600 net.cpp:113] Setting up conv2
I0417 00:26:42.801214 2048377600 net.cpp:120] Top shape: 150 50 19 19 (2707500)
I0417 00:26:42.801234 2048377600 layer_factory.hpp:74] Creating layer pool2
I0417 00:26:42.801244 2048377600 net.cpp:84] Creating Layer pool2
I0417 00:26:42.801251 2048377600 net.cpp:380] pool2 <- conv2
I0417 00:26:42.801261 2048377600 net.cpp:338] pool2 -> pool2
I0417 00:26:42.801271 2048377600 net.cpp:113] Setting up pool2
I0417 00:26:42.801280 2048377600 net.cpp:120] Top shape: 150 50 10 10 (750000)
I0417 00:26:42.801301 2048377600 layer_factory.hpp:74] Creating layer conv3
I0417 00:26:42.801313 2048377600 net.cpp:84] Creating Layer conv3
I0417 00:26:42.801322 2048377600 net.cpp:380] conv3 <- pool2
I0417 00:26:42.801332 2048377600 net.cpp:338] conv3 -> conv3
I0417 00:26:42.801343 2048377600 net.cpp:113] Setting up conv3
I0417 00:26:42.802059 2048377600 net.cpp:120] Top shape: 150 50 6 6 (270000)
I0417 00:26:42.802106 2048377600 layer_factory.hpp:74] Creating layer pool3
I0417 00:26:42.802131 2048377600 net.cpp:84] Creating Layer pool3
I0417 00:26:42.802145 2048377600 net.cpp:380] pool3 <- conv3
I0417 00:26:42.802163 2048377600 net.cpp:338] pool3 -> pool3
I0417 00:26:42.802177 2048377600 net.cpp:113] Setting up pool3
I0417 00:26:42.802188 2048377600 net.cpp:120] Top shape: 150 50 3 3 (67500)
I0417 00:26:42.802199 2048377600 layer_factory.hpp:74] Creating layer ip1
I0417 00:26:42.802216 2048377600 net.cpp:84] Creating Layer ip1
I0417 00:26:42.802223 2048377600 net.cpp:380] ip1 <- pool3
I0417 00:26:42.802234 2048377600 net.cpp:338] ip1 -> ip1
I0417 00:26:42.802247 2048377600 net.cpp:113] Setting up ip1
I0417 00:26:42.807365 2048377600 net.cpp:120] Top shape: 150 1000 (150000)
I0417 00:26:42.807390 2048377600 layer_factory.hpp:74] Creating layer relu1
I0417 00:26:42.807416 2048377600 net.cpp:84] Creating Layer relu1
I0417 00:26:42.807425 2048377600 net.cpp:380] relu1 <- ip1
I0417 00:26:42.807437 2048377600 net.cpp:327] relu1 -> ip1 (in-place)
I0417 00:26:42.807457 2048377600 net.cpp:113] Setting up relu1
I0417 00:26:42.807466 2048377600 net.cpp:120] Top shape: 150 1000 (150000)
I0417 00:26:42.807476 2048377600 layer_factory.hpp:74] Creating layer drop1
I0417 00:26:42.807485 2048377600 net.cpp:84] Creating Layer drop1
I0417 00:26:42.807493 2048377600 net.cpp:380] drop1 <- ip1
I0417 00:26:42.807502 2048377600 net.cpp:327] drop1 -> ip1 (in-place)
I0417 00:26:42.807512 2048377600 net.cpp:113] Setting up drop1
I0417 00:26:42.807528 2048377600 net.cpp:120] Top shape: 150 1000 (150000)
I0417 00:26:42.807538 2048377600 layer_factory.hpp:74] Creating layer ip2
I0417 00:26:42.807597 2048377600 net.cpp:84] Creating Layer ip2
I0417 00:26:42.807910 2048377600 net.cpp:380] ip2 <- ip1
I0417 00:26:42.807932 2048377600 net.cpp:338] ip2 -> ip2
I0417 00:26:42.807950 2048377600 net.cpp:113] Setting up ip2
I0417 00:26:42.820484 2048377600 net.cpp:120] Top shape: 150 1000 (150000)
I0417 00:26:42.820535 2048377600 layer_factory.hpp:74] Creating layer relu2
I0417 00:26:42.820557 2048377600 net.cpp:84] Creating Layer relu2
I0417 00:26:42.820566 2048377600 net.cpp:380] relu2 <- ip2
I0417 00:26:42.820576 2048377600 net.cpp:327] relu2 -> ip2 (in-place)
I0417 00:26:42.820596 2048377600 net.cpp:113] Setting up relu2
I0417 00:26:42.820605 2048377600 net.cpp:120] Top shape: 150 1000 (150000)
I0417 00:26:42.820615 2048377600 layer_factory.hpp:74] Creating layer drop2
I0417 00:26:42.820626 2048377600 net.cpp:84] Creating Layer drop2
I0417 00:26:42.820633 2048377600 net.cpp:380] drop2 <- ip2
I0417 00:26:42.820642 2048377600 net.cpp:327] drop2 -> ip2 (in-place)
I0417 00:26:42.820652 2048377600 net.cpp:113] Setting up drop2
I0417 00:26:42.820662 2048377600 net.cpp:120] Top shape: 150 1000 (150000)
I0417 00:26:42.820672 2048377600 layer_factory.hpp:74] Creating layer ip3
I0417 00:26:42.820683 2048377600 net.cpp:84] Creating Layer ip3
I0417 00:26:42.820690 2048377600 net.cpp:380] ip3 <- ip2
I0417 00:26:42.820703 2048377600 net.cpp:338] ip3 -> ip3
I0417 00:26:42.820715 2048377600 net.cpp:113] Setting up ip3
I0417 00:26:42.845753 2048377600 net.cpp:120] Top shape: 150 2000 (300000)
I0417 00:26:42.845815 2048377600 layer_factory.hpp:74] Creating layer loss
I0417 00:26:42.845836 2048377600 net.cpp:84] Creating Layer loss
I0417 00:26:42.845846 2048377600 net.cpp:380] loss <- ip3
I0417 00:26:42.845855 2048377600 net.cpp:380] loss <- label
I0417 00:26:42.845870 2048377600 net.cpp:338] loss -> loss
I0417 00:26:42.845883 2048377600 net.cpp:113] Setting up loss
I0417 00:26:42.845893 2048377600 layer_factory.hpp:74] Creating layer loss
…
I0417 00:26:42.847846 2048377600 solver.cpp:154] Creating test net (#0) specified by net file: network/lenet/lenet_train_test.prototxt
I0417 00:26:42.847898 2048377600 net.cpp:257] The NetState phase (1) differed from the phase (0) specified by a rule in layer data
I0417 00:26:42.847918 2048377600 net.cpp:42] Initializing net from parameters: 
name: "LeNet"
state {
  phase: TEST
}
layer {
  name: "data"
  type: "HDF5Data"
  top: "data"
  top: "label"
  include {
    phase: TEST
  }
  hdf5_data_param {
    source: "data/test.txt"
    batch_size: 100
  }
}
layer {
  name: "conv1"
  type: "Convolution"
  bottom: "data"
  top: "conv1"
  param {
    lr_mult: 1
  }
  param {
    lr_mult: 2
  }
  convolution_param {
    num_output: 20
    kernel_size: 5
    stride: 1
    weight_filler {
      type: "xavier"
    }
    bias_filler {
      type: "constant"
    }
  }
}
layer {
  name: "pool1"
  type: "Pooling"
  bottom: "conv1"
  top: "pool1"
  pooling_param {
    pool: MAX
    kernel_size: 2
    stride: 2
  }
}
layer {
  name: "conv2"
  type: "Convolution"
  bottom: "pool1"
  top: "conv2"
  param {
    lr_mult: 1
  }
  param {
    lr_mult: 2
  }
  convolution_param {
    num_output: 50
    kernel_size: 5
    stride: 1
    weight_filler {
      type: "xavier"
    }
    bias_filler {
      type: "constant"
    }
  }
}
layer {
  name: "pool2"
  type: "Pooling"
  bottom: "conv2"
  top: "pool2"
  pooling_param {
    pool: MAX
    kernel_size: 2
    stride: 2
  }
}
layer {
  name: "conv3"
  type: "Convolution"
  bottom: "pool2"
  top: "conv3"
  param {
    lr_mult: 1
  }
  param {
    lr_mult: 2
  }
  convolution_param {
    num_output: 50
    kernel_size: 5
    stride: 1
    weight_filler {
      type: "xavier"
    }
    bias_filler {
      type: "constant"
    }
  }
}
layer {
  name: "pool3"
  type: "Pooling"
  bottom: "conv3"
  top: "pool3"
  pooling_param {
    pool: MAX
    kernel_size: 2
    stride: 2
  }
}
layer {
  name: "ip1"
  type: "InnerProduct"
  bottom: "pool3"
  top: "ip1"
  param {
    lr_mult: 1
  }
  param {
    lr_mult: 2
  }
  inner_product_param {
    num_output: 1000
    weight_filler {
      type: "xavier"
    }
    bias_filler {
      type: "constant"
    }
  }
}
layer {
  name: "relu1"
  type: "ReLU"
  bottom: "ip1"
  top: "ip1"
}
layer {
  name: "drop1"
  type: "Dropout"
  bottom: "ip1"
  top: "ip1"
  dropout_param {
    dropout_ratio: 0.5
  }
}
layer {
  name: "ip2"
  type: "InnerProduct"
  bottom: "ip1"
  top: "ip2"
  param {
    lr_mult: 1
  }
  param {
    lr_mult: 2
  }
  inner_product_param {
    num_output: 1000
    weight_filler {
      type: "xavier"
    }
    bias_filler {
      type: "constant"
    }
  }
}
layer {
  name: "relu2"
  type: "ReLU"
  bottom: "ip2"
  top: "ip2"
}
layer {
  name: "drop2"
  type: "Dropout"
  bottom: "ip2"
  top: "ip2"
  dropout_param {
    dropout_ratio: 0.5
  }
}
layer {
  name: "ip3"
  type: "InnerProduct"
  bottom: "ip2"
  top: "ip3"
  param {
    lr_mult: 1
  }
  param {
    lr_mult: 2
  }
  inner_product_param {
    num_output: 2000
    weight_filler {
      type: "xavier"
    }
    bias_filler {
      type: "constant"
    }
  }
}
layer {
  name: "accuracy"
  type: "Accuracy"
  bottom: "ip3"
  bottom: "label"
  top: "accuracy"
  include {
    phase: TEST
  }
}
layer {
  name: "loss"
  type: "SoftmaxWithLoss"
  bottom: "ip3"
  bottom: "label"
  top: "loss"
}
I0417 00:26:42.848168 2048377600 layer_factory.hpp:74] Creating layer data
I0417 00:26:42.848183 2048377600 net.cpp:84] Creating Layer data
I0417 00:26:42.848192 2048377600 net.cpp:338] data -> data
I0417 00:26:42.848207 2048377600 net.cpp:338] data -> label
I0417 00:26:42.848219 2048377600 net.cpp:113] Setting up data
I0417 00:26:42.848227 2048377600 hdf5_data_layer.cpp:80] Loading list of HDF5 filenames from: data/test.txt
I0417 00:26:42.849880 2048377600 hdf5_data_layer.cpp:94] Number of HDF5 files: 1
I0417 00:26:44.018980 2048377600 net.cpp:120] Top shape: 100 1 50 50 (250000)
I0417 00:26:44.019028 2048377600 net.cpp:120] Top shape: 100 (100)
I0417 00:26:44.019042 2048377600 layer_factory.hpp:74] Creating layer label_data_1_split
I0417 00:26:44.019058 2048377600 net.cpp:84] Creating Layer label_data_1_split
I0417 00:26:44.019068 2048377600 net.cpp:380] label_data_1_split <- label
I0417 00:26:44.019079 2048377600 net.cpp:338] label_data_1_split -> label_data_1_split_0
I0417 00:26:44.019096 2048377600 net.cpp:338] label_data_1_split -> label_data_1_split_1
I0417 00:26:44.019109 2048377600 net.cpp:113] Setting up label_data_1_split
I0417 00:26:44.019132 2048377600 net.cpp:120] Top shape: 100 (100)
I0417 00:26:44.019155 2048377600 net.cpp:120] Top shape: 100 (100)
I0417 00:26:44.019165 2048377600 layer_factory.hpp:74] Creating layer conv1
I0417 00:26:44.019178 2048377600 net.cpp:84] Creating Layer conv1
I0417 00:26:44.019186 2048377600 net.cpp:380] conv1 <- data
I0417 00:26:44.019197 2048377600 net.cpp:338] conv1 -> conv1
I0417 00:26:44.019209 2048377600 net.cpp:113] Setting up conv1
I0417 00:26:44.019243 2048377600 net.cpp:120] Top shape: 100 20 46 46 (4232000)
I0417 00:26:44.019260 2048377600 layer_factory.hpp:74] Creating layer pool1
I0417 00:26:44.019271 2048377600 net.cpp:84] Creating Layer pool1
I0417 00:26:44.019279 2048377600 net.cpp:380] pool1 <- conv1
I0417 00:26:44.019292 2048377600 net.cpp:338] pool1 -> pool1
I0417 00:26:44.019304 2048377600 net.cpp:113] Setting up pool1
I0417 00:26:44.019315 2048377600 net.cpp:120] Top shape: 100 20 23 23 (1058000)
I0417 00:26:44.019325 2048377600 layer_factory.hpp:74] Creating layer conv2
I0417 00:26:44.019336 2048377600 net.cpp:84] Creating Layer conv2
I0417 00:26:44.019345 2048377600 net.cpp:380] conv2 <- pool1
I0417 00:26:44.019356 2048377600 net.cpp:338] conv2 -> conv2
I0417 00:26:44.019366 2048377600 net.cpp:113] Setting up conv2
I0417 00:26:44.019644 2048377600 net.cpp:120] Top shape: 100 50 19 19 (1805000)
I0417 00:26:44.019661 2048377600 layer_factory.hpp:74] Creating layer pool2
I0417 00:26:44.019675 2048377600 net.cpp:84] Creating Layer pool2
I0417 00:26:44.019683 2048377600 net.cpp:380] pool2 <- conv2
I0417 00:26:44.019692 2048377600 net.cpp:338] pool2 -> pool2
I0417 00:26:44.019702 2048377600 net.cpp:113] Setting up pool2
I0417 00:26:44.019712 2048377600 net.cpp:120] Top shape: 100 50 10 10 (500000)
I0417 00:26:44.019722 2048377600 layer_factory.hpp:74] Creating layer conv3
I0417 00:26:44.019733 2048377600 net.cpp:84] Creating Layer conv3
I0417 00:26:44.019740 2048377600 net.cpp:380] conv3 <- pool2
I0417 00:26:44.019750 2048377600 net.cpp:338] conv3 -> conv3
I0417 00:26:44.019762 2048377600 net.cpp:113] Setting up conv3
I0417 00:26:44.020454 2048377600 net.cpp:120] Top shape: 100 50 6 6 (180000)
I0417 00:26:44.020476 2048377600 layer_factory.hpp:74] Creating layer pool3
I0417 00:26:44.020488 2048377600 net.cpp:84] Creating Layer pool3
I0417 00:26:44.020501 2048377600 net.cpp:380] pool3 <- conv3
I0417 00:26:44.020522 2048377600 net.cpp:338] pool3 -> pool3
I0417 00:26:44.020539 2048377600 net.cpp:113] Setting up pool3
I0417 00:26:44.020550 2048377600 net.cpp:120] Top shape: 100 50 3 3 (45000)
I0417 00:26:44.020560 2048377600 layer_factory.hpp:74] Creating layer ip1
I0417 00:26:44.020573 2048377600 net.cpp:84] Creating Layer ip1
I0417 00:26:44.020581 2048377600 net.cpp:380] ip1 <- pool3
I0417 00:26:44.020594 2048377600 net.cpp:338] ip1 -> ip1
I0417 00:26:44.020606 2048377600 net.cpp:113] Setting up ip1
I0417 00:26:44.025454 2048377600 net.cpp:120] Top shape: 100 1000 (100000)
I0417 00:26:44.025480 2048377600 layer_factory.hpp:74] Creating layer relu1
I0417 00:26:44.025507 2048377600 net.cpp:84] Creating Layer relu1
I0417 00:26:44.025527 2048377600 net.cpp:380] relu1 <- ip1
I0417 00:26:44.025537 2048377600 net.cpp:327] relu1 -> ip1 (in-place)
I0417 00:26:44.025547 2048377600 net.cpp:113] Setting up relu1
I0417 00:26:44.025554 2048377600 net.cpp:120] Top shape: 100 1000 (100000)
I0417 00:26:44.025563 2048377600 layer_factory.hpp:74] Creating layer drop1
I0417 00:26:44.025573 2048377600 net.cpp:84] Creating Layer drop1
I0417 00:26:44.025581 2048377600 net.cpp:380] drop1 <- ip1
I0417 00:26:44.025590 2048377600 net.cpp:327] drop1 -> ip1 (in-place)
I0417 00:26:44.025600 2048377600 net.cpp:113] Setting up drop1
I0417 00:26:44.025610 2048377600 net.cpp:120] Top shape: 100 1000 (100000)
I0417 00:26:44.025619 2048377600 layer_factory.hpp:74] Creating layer ip2
I0417 00:26:44.025634 2048377600 net.cpp:84] Creating Layer ip2
I0417 00:26:44.025641 2048377600 net.cpp:380] ip2 <- ip1
I0417 00:26:44.025651 2048377600 net.cpp:338] ip2 -> ip2
I0417 00:26:44.025662 2048377600 net.cpp:113] Setting up ip2
I0417 00:26:44.037188 2048377600 net.cpp:120] Top shape: 100 1000 (100000)
I0417 00:26:44.037277 2048377600 layer_factory.hpp:74] Creating layer relu2
I0417 00:26:44.037293 2048377600 net.cpp:84] Creating Layer relu2
I0417 00:26:44.037302 2048377600 net.cpp:380] relu2 <- ip2
I0417 00:26:44.037322 2048377600 net.cpp:327] relu2 -> ip2 (in-place)
I0417 00:26:44.037343 2048377600 net.cpp:113] Setting up relu2
I0417 00:26:44.037353 2048377600 net.cpp:120] Top shape: 100 1000 (100000)
I0417 00:26:44.037361 2048377600 layer_factory.hpp:74] Creating layer drop2
I0417 00:26:44.037372 2048377600 net.cpp:84] Creating Layer drop2
I0417 00:26:44.037380 2048377600 net.cpp:380] drop2 <- ip2
I0417 00:26:44.037389 2048377600 net.cpp:327] drop2 -> ip2 (in-place)
I0417 00:26:44.037400 2048377600 net.cpp:113] Setting up drop2
I0417 00:26:44.037410 2048377600 net.cpp:120] Top shape: 100 1000 (100000)
I0417 00:26:44.037418 2048377600 layer_factory.hpp:74] Creating layer ip3
I0417 00:26:44.037431 2048377600 net.cpp:84] Creating Layer ip3
I0417 00:26:44.037438 2048377600 net.cpp:380] ip3 <- ip2
I0417 00:26:44.037448 2048377600 net.cpp:338] ip3 -> ip3
I0417 00:26:44.037461 2048377600 net.cpp:113] Setting up ip3
I0417 00:26:44.061713 2048377600 net.cpp:120] Top shape: 100 2000 (200000)
I0417 00:26:44.061766 2048377600 layer_factory.hpp:74] Creating layer ip3_ip3_0_split
I0417 00:26:44.061782 2048377600 net.cpp:84] Creating Layer ip3_ip3_0_split
I0417 00:26:44.061792 2048377600 net.cpp:380] ip3_ip3_0_split <- ip3
I0417 00:26:44.061806 2048377600 net.cpp:338] ip3_ip3_0_split -> ip3_ip3_0_split_0
I0417 00:26:44.061820 2048377600 net.cpp:338] ip3_ip3_0_split -> ip3_ip3_0_split_1
I0417 00:26:44.061831 2048377600 net.cpp:113] Setting up ip3_ip3_0_split
I0417 00:26:44.061841 2048377600 net.cpp:120] Top shape: 100 2000 (200000)
I0417 00:26:44.061851 2048377600 net.cpp:120] Top shape: 100 2000 (200000)
I0417 00:26:44.061859 2048377600 layer_factory.hpp:74] Creating layer accuracy
I0417 00:26:44.061872 2048377600 net.cpp:84] Creating Layer accuracy
I0417 00:26:44.061880 2048377600 net.cpp:380] accuracy <- ip3_ip3_0_split_0
I0417 00:26:44.061888 2048377600 net.cpp:380] accuracy <- label_data_1_split_0
I0417 00:26:44.061898 2048377600 net.cpp:338] accuracy -> accuracy
I0417 00:26:44.061909 2048377600 net.cpp:113] Setting up accuracy
…
